[2023-05-27 01:49:20,235][__main__][INFO] - ViT(
  (patch_embed): PatchEmbed(
    (proj): Conv2d(3, 96, kernel_size=(2, 2), stride=(2, 2))
  )
  (embed_dropout): Dropout(p=0.2, inplace=False)
  (transformer_blocks): ModuleList(
    (0): Block(
      (ln_1): LayerNorm((96,), eps=1e-05, elementwise_affine=True)
      (attn): NewMultiHeadAttention(
        (qkv): Linear(in_features=96, out_features=288, bias=True)
        (projection): Linear(in_features=96, out_features=96, bias=True)
        (attention_dropout): Dropout(p=0.2, inplace=False)
        (projection_dropout): Dropout(p=0.2, inplace=False)
      )
      (ln_2): LayerNorm((96,), eps=1e-05, elementwise_affine=True)
      (mlp): Sequential(
        (0): Linear(in_features=96, out_features=384, bias=True)
        (1): GELU()
        (2): Linear(in_features=384, out_features=96, bias=True)
        (3): Dropout(p=0.2, inplace=False)
      )
    )
    (1): Block(
      (ln_1): LayerNorm((96,), eps=1e-05, elementwise_affine=True)
      (attn): NewMultiHeadAttention(
        (qkv): Linear(in_features=96, out_features=288, bias=True)
        (projection): Linear(in_features=96, out_features=96, bias=True)
        (attention_dropout): Dropout(p=0.2, inplace=False)
        (projection_dropout): Dropout(p=0.2, inplace=False)
      )
      (ln_2): LayerNorm((96,), eps=1e-05, elementwise_affine=True)
      (mlp): Sequential(
        (0): Linear(in_features=96, out_features=384, bias=True)
        (1): GELU()
        (2): Linear(in_features=384, out_features=96, bias=True)
        (3): Dropout(p=0.2, inplace=False)
      )
    )
    (2): Block(
      (ln_1): LayerNorm((96,), eps=1e-05, elementwise_affine=True)
      (attn): NewMultiHeadAttention(
        (qkv): Linear(in_features=96, out_features=288, bias=True)
        (projection): Linear(in_features=96, out_features=96, bias=True)
        (attention_dropout): Dropout(p=0.2, inplace=False)
        (projection_dropout): Dropout(p=0.2, inplace=False)
      )
      (ln_2): LayerNorm((96,), eps=1e-05, elementwise_affine=True)
      (mlp): Sequential(
        (0): Linear(in_features=96, out_features=384, bias=True)
        (1): GELU()
        (2): Linear(in_features=384, out_features=96, bias=True)
        (3): Dropout(p=0.2, inplace=False)
      )
    )
    (3): Block(
      (ln_1): LayerNorm((96,), eps=1e-05, elementwise_affine=True)
      (attn): NewMultiHeadAttention(
        (qkv): Linear(in_features=96, out_features=288, bias=True)
        (projection): Linear(in_features=96, out_features=96, bias=True)
        (attention_dropout): Dropout(p=0.2, inplace=False)
        (projection_dropout): Dropout(p=0.2, inplace=False)
      )
      (ln_2): LayerNorm((96,), eps=1e-05, elementwise_affine=True)
      (mlp): Sequential(
        (0): Linear(in_features=96, out_features=384, bias=True)
        (1): GELU()
        (2): Linear(in_features=384, out_features=96, bias=True)
        (3): Dropout(p=0.2, inplace=False)
      )
    )
    (4): Block(
      (ln_1): LayerNorm((96,), eps=1e-05, elementwise_affine=True)
      (attn): NewMultiHeadAttention(
        (qkv): Linear(in_features=96, out_features=288, bias=True)
        (projection): Linear(in_features=96, out_features=96, bias=True)
        (attention_dropout): Dropout(p=0.2, inplace=False)
        (projection_dropout): Dropout(p=0.2, inplace=False)
      )
      (ln_2): LayerNorm((96,), eps=1e-05, elementwise_affine=True)
      (mlp): Sequential(
        (0): Linear(in_features=96, out_features=384, bias=True)
        (1): GELU()
        (2): Linear(in_features=384, out_features=96, bias=True)
        (3): Dropout(p=0.2, inplace=False)
      )
    )
    (5): Block(
      (ln_1): LayerNorm((96,), eps=1e-05, elementwise_affine=True)
      (attn): NewMultiHeadAttention(
        (qkv): Linear(in_features=96, out_features=288, bias=True)
        (projection): Linear(in_features=96, out_features=96, bias=True)
        (attention_dropout): Dropout(p=0.2, inplace=False)
        (projection_dropout): Dropout(p=0.2, inplace=False)
      )
      (ln_2): LayerNorm((96,), eps=1e-05, elementwise_affine=True)
      (mlp): Sequential(
        (0): Linear(in_features=96, out_features=384, bias=True)
        (1): GELU()
        (2): Linear(in_features=384, out_features=96, bias=True)
        (3): Dropout(p=0.2, inplace=False)
      )
    )
  )
  (ln): LayerNorm((96,), eps=1e-05, elementwise_affine=True)
  (head): Linear(in_features=96, out_features=10, bias=True)
)
[2023-05-27 01:52:02,081][__main__][INFO] - Epoch 1: Loss: 1.854 Train Accuracy: 0.302 Test Accuracy: 0.384
[2023-05-27 01:54:35,283][__main__][INFO] - Epoch 2: Loss: 1.650 Train Accuracy: 0.388 Test Accuracy: 0.432
[2023-05-27 01:57:09,995][__main__][INFO] - Epoch 3: Loss: 1.529 Train Accuracy: 0.438 Test Accuracy: 0.461
[2023-05-27 01:59:45,559][__main__][INFO] - Epoch 4: Loss: 1.444 Train Accuracy: 0.472 Test Accuracy: 0.493
…
